save_models/cnn_final.pth (torch, 687481 bytes, 32 tensors)

conv1.weight f4 [32, 1, 3, 3]
0.2605753 0.2507406 -0.07688067 0.2995849 -0.012031503 0.092169076 -0.17360795 0.21128468
0.30385897 -0.2529284 0.26619276 0.048255853 0.26883402 0.04878858 0.15109368 -0.03480639
0.25835487 0.08109771 -0.1743616 0.07711115 -0.16789128 -0.084570296 -0.14433353 0.21539725
-0.2424748 -0.14016464 -0.10044305 -0.22221565 0.011105077 -0.34484255 0.28147963 -0.2716277
0.25807434 0.053092696 -0.093374945 0.22235785 0.076927006 0.2615364 0.033640962 -0.077241234
0.0737143 -0.124433056 0.16127187 0.30832732 0.17512122 -0.12577109 0.21823381 0.03402256
0.16457956 -0.1844181 -0.3427296 -0.15049857 -0.25885224 0.26619852 0.093635306 0.15731272
0.11223102 -0.016785061 0.2543169 -0.22547479 -0.023976168 -0.25239798 0.07814105 -0.13164179
0.07126412 -0.11206124 0.27655637 -0.17804341 -0.21871741 -0.16515478 0.32136658 0.11007227
0.28842938 -0.28228688 -0.3294586 -0.29503778 -0.22079557 0.14597976 0.11224988 0.2918544
-0.16505736 -0.26057023 0.15696816 -0.11466308 0.18934564 -0.07532422 0.21916574 -0.24534275
-0.14456125 0.12466627 0.06667919 -0.10449154 0.17025918 0.25228292 -0.23739819 -0.15234935
0.32409057 -0.0987999 -0.13308811 -0.36452407 -0.18267299 0.11883898 -0.013161507 -0.21688122
0.034860816 -0.19295767 -0.26272258 -0.16947927 -0.30609158 -0.20077495 0.36031237 0.036600288
0.0966447 -0.26358902 -0.22049467 -0.11116302 0.06516381 -0.31226397 -0.11933563 -0.19780356
0.05118649 -0.10549936 -0.046028458 -0.21734689 -0.2396649 -0.18551087 -0.15793441 -0.25022644
0.28258532 -0.10638271 0.2729329 0.1134302 -0.29721516 0.2061198 -0.076954275 -0.15330191
-0.29611444 -0.38478434 0.07858464 -0.09135362 0.12476961 -0.26044956 0.2622438 -0.20728171
-0.0839963 0.0861121 0.1682789 0.24513252 0.28531176 -0.27477333 0.07822443 -0.15060343
-0.078226544 -0.26490703 0.2972064 -0.24373536 0.18429616 0.13817622 0.089562476 -0.14136234
0.32420686 0.07743533 0.026059365 -0.30685097 0.14291242 -0.034454845 -0.15251733 0.2942424
0.08468232 -0.17143868 -0.14924113 -0.03513318 0.17591605 -0.08459904 -0.1943507 -0.11665671
-0.23000026 0.14085831 0.25313443 -0.33225727 0.1013878 0.16984917 0.091979526 -0.114343554
0.13718882 0.16472755 0.12139304 -0.08412909 -0.11031261 0.006172498 -0.10807406 -0.12410307
0.17252599 0.2610743 -0.030915398 -0.12885386 -0.016932797 -0.016445428 0.060460325 0.088205464
-0.29624492 -0.1407022 0.27602154 0.12543367 -0.043186404 -0.21443376 -0.21307558 -0.33042932
-0.11283737 0.11295133 0.19871992 0.16607974 -0.26512766 -0.1992234 -0.044323053 0.33132097
0.04303682 -0.052026022 0.17614888 -0.10598439 -0.1637667 0.25684932 -0.14325097 -0.06866424
-0.34346128 0.21799241 0.25812116 0.13632448 -0.21684423 -0.33780307 -0.28933957 0.25726572
0.14331608 0.26237366 0.16987228 0.09671824 -0.011759203 -0.25321335 -0.2662967 -0.33169118
0.12535577 -0.197621 -0.060575973 -0.20645837 -0.07432176 -0.23702767 -0.17526495 0.09937791
-0.10394989 0.24412943 -0.07589375 -0.21083347 -0.054596335 -0.18162687 -0.12025805 -0.32427022
00000000: 206a 853e 1261 803e 9d73 9dbd 3163 993e
00000010: c81f 45bc 24c3 bc3d 48c6 31be 035b 583e
00000020: 6793 9b3e d57f 81be 6b4a 883e eea7 453d
00000030: 9da4 893e 89d6 473d 4db8 1a3e 2591 0ebd
00000040: 1747 843e 8e16 a63d d98b 32be 73ec 9d3d
00000050: b1eb 2bbe 3133 adbd 2bcc 13be 1991 5c3e
00000060: 504b 78be 5287 0fbe 16b5 cdbd 808c 63be
00000070: 12f2 353c 348f b0be 191e 903e c912 8bbe
00000080: 5222 843e ba77 593d 5d3b bfbd c7b1 633e
00000090: e88b 9d3d 19e8 853e 1bcb 093d a730 9ebd
000000a0: 86f7 963d c2d6 febd 7424 253e 14dd 9d3e
000000b0: fa52 333e 23ca 00be af78 5f3e 3d5b 0b3d
000000c0: 8b87 283e 19d8 3cbe 417a afbe 4c1c 1abe
000000d0: 4888 84be 2c4b 883e dec3 bf3d 9616 213e
000000e0: 61d9 e53d d380 89bc d335 823e dde2 66be
000000f0: ab69 c4bc 4f3a 81be 6a08 a03d 1bcd 06be
00000100: ecf2 913d 5d80 e5bd cc98 8d3e 0351 36be
00000110: 75f7 5fbe 561e 29be 298a a43e 926d e13d
00000120: 04ad 933e e887 90be ccae a8be 310f 97be
00000130: 3c18 62be b87b 153e 44e3 e53d f16d 953e
00000140: cc04 29be 7669 85be 43bc 203e 7ad4 eabd
00000150: d3e3 413e 9643 9abd fc6c 603e 213b 7bbe
00000160: dd07 14be 0851 ff3d 198f 883d a9ff d5bd
00000170: 6c58 2e3e 3a2b 813e 8318 73be 7801 1cbe
00000180: 33ef a53e 9a57 cabd 4048 08be e6a2 babe
00000190: a10e 3bbe da61 f33d 5da3 57bc 1c16 5ebe
000001a0: 37ca 0e3d b296 45be 9383 86be f98b 2dbe
000001b0: 09b8 9cbe f397 4dbe dd7a b83e 2fea 153d
000001c0: a8ed c53d 24f5 86be 5bc9 61be 70a9 e3bd
000001d0: 9b74 853d 10e1 9fbe 3d66 f4bd 048d 4abe
000001e0: eda8 513d 0c10 d8bd 5688 3cbd 2f90 5ebe
000001f0: b76a 75be 90f6 3dbe 8fb9 21be ae1d 80be
00000200: 06af 903e 2edf d9bd dcbd 8b3e 184e e83d
00000210: 962c 98be 1211 533e 349a 9dbd 2dfb 1cbe
00000220: 509c 97be 7402 c5be fcf0 a03d 9b17 bbbd
00000230: 3687 ff3d a559 85be d244 863e a841 54be
00000240: 4106 acbd 8a5b b03d 4e51 2c3e 0504 7b3e
00000250: 6214 923e 17af 8cbe 2134 a03d c937 1abe
00000260: 3d35 a0bd e5a1 87be 702b 983e c395 79be
00000270: 22b8 3c3e 117e 0d3e 886c b73d 4ac1 10be
00000280: 71fe a53e 6a96 9e3d 737a d53c 921b 9dbe
00000290: a257 123e 8620 0dbd 812d 1cbe f1a6 963e
000002a0: ed6d ad3d 9f8d 2fbe abd2 18be cfe7 0fbd
000002b0: 5623 343e 4342 adbd df03 47be b7e9 eebd
000002c0: 3085 6bbe 293d 103e d69a 813e a01d aabe
000002d0: 68a4 cf3d f1ec 2d3e c35f bc3d f42c eabd
000002e0: 3a7b 0c3e 57ae 283e ea9c f83d df4b acbd
000002f0: 94eb e1bd ab42 ca3b ef55 ddbd c029 febd
00000300: a7aa 303e 88ab 853e 4a42 fdbc 44f2 03be
00000310: a6b6 8abc 90b8 86bc 3fa5 773d 11a5 b43d
00000320: 6aad 97be 3d14 10be b252 8d3e af71 003e
00000330: 3ae4 30bd 8694 5bbe 7c30 5abe 082e a9be
00000340: 4717 e7bd 0753 e73d 3c7d 4b3e cf10 2a3e
00000350: d0be 87be 3801 4cbe 178c 35bd e7a2 a93e
00000360: 6047 303d 3d19 55bd 5f60 343e 580e d9bd
00000370: 75b2 27be c181 833e 62b0 12be d69f 8cbd
00000380: 28da afbe 6739 5f3e 7528 843e a598 0b3e
00000390: 6a0c 5ebe 86f4 acbe 5124 94be 55b8 833e
000003a0: 73c1 123e d755 863e 00f3 2d3e 3614 c63d
000003b0: aca9 40bc 2ea5 81be 0b58 88be 6dd3 a9be
000003c0: 435d 003e 295d 4abe 831e 78bd d369 53be
000003d0: 0236 98bd 62b7 72be a878 33be a586 cb3d
000003e0: aee3 d4bd 11fd 793e 2f6e 9bbd bbe4 57be
000003f0: 68a0 5fbd 65fc 39be da49 f6bd bf06 a6be

conv1.bias f4 [32]
0.27814955 -0.05591101 -0.037255827 -0.13973252 -0.30011913 -0.32550868 0.12226479 -0.17263506
-0.21057153 -0.02548832 -0.113164 -0.10132154 0.0059419633 -0.067216046 -0.1187656 -0.1548528
-0.27222863 0.27821735 -0.12871972 0.09736824 -0.12212965 0.026255839 0.3110872 0.15485059
-0.2904819 0.13088381 0.31629512 0.07943995 0.21286224 0.32066694 -0.048709277 0.07552617
00000000: 9e69 8e3e f102 65bd 9199 18bd 0b16 0fbe
00000010: 37a9 99be 13a9 a6be f665 fa3d 3fc7 30be
00000020: 10a0 57be e2cc d0bc 87c2 e7bd ab81 cfbd
00000030: cdb4 c23b 91a8 89bd 613b f3bd bb91 1ebe
00000040: 8d61 8bbe 8172 8e3e 1acf 03be 0069 c73d
00000050: 1c1f fabd 7c16 d73c d246 9f3e 2791 1e3e
00000060: 0bba 94be 6806 063e 6ff1 a13e 6ab1 a23d
00000070: 8ff8 593e 752e a43e 6183 47bd 77ad 9a3d

batchnorm1.weight f4 [32]
0.9843217 0.9831074 0.98024017 1.005597 0.9579427 1.0141709 1.0067755 0.9997634
1.0011036 1.002742 1.0214647 0.98488575 0.9868009 0.99216884 1.0130118 1.000099
0.985916 0.97775227 1.017882 1.001062 0.97984254 0.9999257 0.99276143 0.9948209
0.99729747 0.9678155 0.9454414 1.0238516 1.0679317 1.0476947 0.98491716 0.958244
00000000: 82fc 7b3f edac 7b3f 05f1 7a3f 67b7 803f
00000010: bc3b 753f 5ad0 813f 05de 803f 7ff0 7f3f
00000020: 2a24 803f da59 803f 5bbf 823f 7921 7c3f
00000030: fc9e 7c3f c7fe 7d3f 5faa 813f 3e03 803f
00000040: fe64 7c3f f94d 7a3f f549 823f cd22 803f
00000050: f6d6 7a3f 21fb 7f3f 9d25 7e3f 95ac 7e3f
00000060: e34e 7f3f c2c2 773f 7308 723f 920d 833f
00000070: fcb1 883f dc1a 863f 8823 7c3f 7b4f 753f

batchnorm1.bias f4 [32]
0.05206756 0.07466567 0.18391643 0.012809981 -0.04827711 0.10811529 0.036587186 0.00777355
0.15240483 -0.016807817 -0.030853232 0.17623714 0.059515208 0.18142255 -0.012485547 0.21612443
0.040757064 0.02778048 0.029492654 0.15014881 0.06713906 -0.00893327 0.098562285 0.048095167
0.090752505 0.04422573 0.058416888 0.19534607 0.07471259 -0.019242495 0.054521903 0.113693625
00000000: cb44 553d 51ea 983d 9754 3c3e f4e0 513c
00000010: 38be 45bd 8d6b dd3d 72dc 153d 44b9 fe3b
00000020: 0310 1c3e 8cb0 89bc ebbf fcbc 8277 343e
00000030: 38c6 733d d5c6 393e 2e90 4cbc b94f 5d3e
00000040: e1f0 263d e493 e33c 949a f13c 9cc0 193e
00000050: 3480 893d da5c 12bc 06db c93d 70ff 443d
00000060: 73dc b93d 0a26 353d 8c46 6f3d cd08 483e
00000070: ea02 993d 70a2 9dbc 5c52 5f3d 34d8 e83d

batchnorm1.running_mean f4 [32]
0.009473251 -0.26903543 0.12557866 -0.114076346 -0.5006961 -0.22329275 0.07841535 -0.17085975
-0.09325719 -0.006969197 -0.10572812 0.18739006 0.13052994 0.23304081 -0.13818212 0.032273628
-0.34961277 0.13452247 -0.052276332 0.19258074 -0.23664339 -0.0011615437 0.3637093 0.17924634
-0.19722502 0.079753615 0.51639366 0.23815791 0.25805816 0.30708668 -0.16427146 0.29170513
00000000: b235 1b3c 03bf 89be b197 003e dca0 e9bd
00000010: 9f2d 00bf dba6 64be 3a98 a03d dcf5 2ebe
00000020: a0fd bebd dd5d e4bb fc87 d8bd 2ee3 3f3e
00000030: a4a9 053e 40a2 6e3e 9d7f 0dbe 5a31 043d
00000040: 7200 b3be 42c0 093e b51f 56bd e333 453e
00000050: a552 72be f03e 98ba 1b38 ba3e 5a8c 373e
00000060: 5bf5 49be dd55 a33d 6032 043f abdf 733e
00000070: 3320 843e 773a 9d3e c736 28be 605a 953e

batchnorm1.running_var f4 [32]
8.728459 5.4436927 3.935473 1.2197266 5.269157 1.7227447 0.9730516 0.6474794
2.8386753 0.76227665 1.4002789 10.497217 2.6557941 11.364939 1.6502161 5.851691
1.6162815 2.6596458 1.0320728 1.9434577 1.9691739 0.33019215 1.1268699 0.9997249
2.072567 1.5407443 5.1714234 3.8446555 1.9112159 0.8795662 1.9300133 6.019597
00000000: c5a7 0b41 bb32 ae40 cade 7b40 0020 9c3f
00000010: ef9c a840 e682 dc3f e919 793f 36c1 253f
00000020: dbac 3540 9024 433f 573c b33f 9af4 2741
00000030: 88f8 2940 cad6 3541 483a d33f 0d41 bb40
00000040: 50e2 ce3f a337 2a40 f61a 843f 39c3 f83f
00000050: e40d fc3f f20e a93e 463d 903f f9ed 7f3f
00000060: f0a4 0440 1c37 c53f 4d7c a540 d60e 7640
00000070: b9a2 f43f 402b 613f ad0a f73f 8aa0 c040

conv2.weight f4 [64, 32, 3, 3]
-0.05713744 -0.019685352 0.04140418 0.02392173 -0.03699856 -0.061829563 -0.061178736 -0.080112375
-0.07091962 -0.010052055 0.06325038 0.029671812 -0.03553329 -0.041532367 0.009394882 -0.06379016
-0.02988655 0.01251049 -0.015306365 -0.030934332 -0.044439424 -0.02966701 -0.03726063 -0.059924975
-0.04855289 -0.028557178 0.07652279 0.0030957938 0.008854778 0.047752235 0.039106503 0.040385917
0.02775194 0.033542827 -0.04402783 0.011601693 0.030009389 -0.008266452 -0.044522107 0.042191014
-0.038695347 -0.059504226 -0.07322332 -0.014340469 0.012762011 0.03833047 0.022231814 -0.032532763
-0.03787288 0.035532616 0.08205002 0.059722535 -0.0044101854 0.0024944863 -0.060027853 0.0057657566
0.037600435 0.06416073 0.08095662 -0.02715408 0.036429066 -0.04785332 -0.0069724116 0.06760893
0.008681916 0.0588562 -0.043935273 -0.019215064 0.026100406 -0.035117816 -0.012594764 -0.014200134
0.05907593 0.05339872 0.03241783 -0.011049773 -0.030781532 0.02644642 0.013897174 -0.0120001305
-0.0067700986 0.046562787 0.020740733 -0.008664706 0.012115198 -0.053627525 -0.058581408 -0.033576388
-0.045026172 0.004233199 -0.027511567 -0.018775867 0.076071426 0.008623855 0.05633157 -0.018776825
-0.050365817 0.0198506 -0.05225426 -0.03722948 -0.04276012 -0.06477171 -0.06327345 0.023419479
0.032013558 0.019679751 -0.014146725 -0.045400236 0.007359825 -0.012522542 -0.0124161905 0.007541214
-0.025833748 0.0167288 -0.038690846 0.034968805 -0.02450088 -0.0075559947 -0.057024147 -0.028683485
-0.04528568 0.030929876 -0.0027207946 0.055257045 0.066916786 -0.004911584 -0.03250496 0.05374975
0.05474727 -0.013358448 -0.0033246842 -0.052315377 -0.05886268 -0.009200347 0.018497946 0.02212992
-0.029518653 0.058656204 0.00035511903 -0.040837113 0.011484429 0.01860047 0.03448581 -0.019195689
-0.0023017544 -0.005342693 -0.015485576 -0.015177817 0.07867155 0.072365195 0.035936188 0.016290005
0.011624041 0.01729517 -0.0047714957 0.040622506 -0.023956234 -0.033688035 -0.037811674 -0.005161669
0.01385398 -0.028014146 -0.00046497022 0.00473372 -0.05755416 -0.01804049 0.03708659 -0.022843575
0.03699711 0.0427891 0.0061078146 0.035393976 -0.00033616228 0.00936228 -0.017334936 -0.009061532
0.019963713 0.04417838 -0.01621497 -0.032470174 -0.02672043 -0.011732306 0.015879648 0.06313913
0.053257193 0.02337452 -0.060678005 -0.05559148 -0.042771626 -0.02355979 0.02619461 -0.030499805
0.038906068 -0.04025333 -0.030697368 -0.07433411 0.025125453 -0.0638447 0.02755783 0.010186388
0.005143147 0.035918083 -0.020328902 0.05065427 0.03822937 -0.036646016 0.036310125 0.039888706
0.0136028165 0.0054954803 0.02130254 -0.04698642 -0.033851903 0.045450114 0.04302931 0.012062644
-0.027414983 0.0026669444 -0.048421588 0.075917095 -0.016825141 -0.013430252 -0.010372494 -0.0037517021
0.034448486 0.01151833 0.024042517 0.016157385 0.028113874 -0.017614732 -0.02491717 0.0058148545
-0.030063793 0.008318549 -0.0135498475 -0.03291707 0.036539413 0.0101236375 0.043522034 0.08828311
0.041714665 0.074883826 0.0072997813 -0.047047466 -0.053137433 -0.042182676 -0.06903292 -0.036087263
-0.062311668 -0.03622569 -0.017891126 -0.04131285 0.014660714 0.076252036 0.0812572 0.009688972
00000000: f308 6abd 2d43 a1bc 6e97 293d 81f7 c33c
00000010: cd8b 17bd ff40 7dbd 8e96 7abd f511 a4bd
00000020: 4e3e 91bd 60b1 24bc 6a89 813d 4d12 f33c
00000030: 5b8b 11bd d81d 2abd feec 193c 6aa4 82bd
00000040: a3d4 f4bc ccf8 4c3c 8cc7 7abc ff69 fdbc
00000050: 1d06 36bd 3b08 f3bc 9a9e 18bd e473 75bd
00000060: 65df 46bd bef0 e9bc fbb7 9c3d cde2 4a3b
00000070: a113 113c d997 433d 242e 203d b46b 253d
00000080: 0958 e33c 3464 093d 8756 34bd 0715 3e3c
00000090: 40d6 f53c 0370 07bc d05c 36bd 7cd0 2c3d
000000a0: 037f 1ebd b4ba 73bd 1cf6 95bd 49f4 6abc
000000b0: c117 513c 6900 1d3d 7e1f b63c 1341 05bd
000000c0: 9820 1bbd a68a 113d d709 a83d 9e9f 743d
000000d0: 5183 90bb 897a 233b c4df 75bd acee bc3b
000000e0: ea02 1a3d b366 833d 96cc a53d 3c72 debc
000000f0: a536 153d d801 44bd d478 e4bb 8d76 8a3d
00000100: 983e 0e3c 3313 713d 79f5 33bd e968 9dbc
00000110: 85d0 d53c b3d7 0fbd 455a 4ebc aea7 68bc
00000120: 9af9 713d 9eb8 5a3d 8fc8 043d 1b0a 35bc
00000130: 8d29 fcbc 2aa6 d83c f9b0 633c 329c 44bc
00000140: b4d7 ddbb 9fb8 3e3d 78e8 a93c 69f6 0dbc
00000150: d37e 463c 89a8 5bbd 0ff3 6fbd 6587 09bd
00000160: 5d6d 38bd a6b6 8a3b f05f e1bc d9cf 99bc
00000170: 56cb 9b3d 124b 0d3c efbb 663d dbd1 99bc
00000180: 634c 4ebd ba9d a23c 9008 56bd f07d 18bd
00000190: 3c25 2fbd 08a7 84bd 8395 81bd 35da bf3c
000001a0: a620 033d 6e37 a13c aac7 67bc 99f5 39bd
000001b0: b02a f13b 592b 4dbc 476d 4bbc 4a1c f73b
000001c0: 4ca1 d3bc d60a 893c 4b7a 1ebd 733b 0f3d
000001d0: 12b6 c8bc 4798 f7bb 2792 69bd a1f9 eabc
000001e0: 7a7d 39bd a760 fd3c 5c4f 32bb 3655 623d
000001f0: ab0b 893d 5af1 a0bb ec23 05bd b328 5c3d
00000200: ac3e 603d 64dd 5abc f2e2 59bb a648 56bd
00000210: fe19 71bd 0dbd 16bc 0189 973c ce49 b53c
00000220: 1ad1 f1bc 7d41 703d 452f ba39 d144 27bd
00000230: 3029 3c3c 0360 983c fe40 0d3d 4740 9dbc
00000240: 08d9 16bb c211 afbb 37b7 7dbc 61ac 78bc
00000250: 8d1e a13d 3434 943d d331 133d 9e72 853c
00000260: c372 3e3c 9aae 8d3c 355a 9cbb c963 263d
00000270: dd3f c4bc 77fc 09bd 6ae0 1abd 3823 a9bb
00000280: cefb 623c ec7d e5bc 3fc7 f3b9 521d 9b3b
00000290: e9bd 6bbd a6c9 93bc 1ce8 173d 7322 bbbc
000002a0: 488a 173d a043 2f3d 1024 c83b 46f9 103d
000002b0: f03e b0b9 4064 193c ff01 8ebc d276 14bc
000002c0: f18a a33c 64f4 343d 42d5 84bc 72ff 04bd
000002d0: cee4 dabc dc38 40bc 0916 823c 174f 813d
000002e0: 3724 5a3d ec7b bf3c 8089 78bd e4b3 63bd
000002f0: 4d31 2fbd 7600 c1bc 1496 d63c bada f9bc
00000300: f85b 1f3d ade0 24bd 0c79 fbbc 7b3c 98bd
00000310: e5d3 cd3c 03c1 82bd f5c0 e13c cfe4 263c
00000320: d887 a83b d71e 133d cc88 a6bc da7a 4f3d
00000330: 6696 1c3d 221a 16bd edb9 143d 5762 233d
00000340: 59de 5e3c 6e13 b43b aa82 ae3c d574 40bd
00000350: 4ba8 0abd e629 3a3d 803f 303d 65a2 453c
00000360: 6395 e0bc e7c7 2e3b b755 46bd 6c7a 9b3d
00000370: e1d4 89bc 8f0a 5cbc 65f1 29bc 1edf 75bb
00000380: db19 0d3d 61b7 3c3c d0f4 c43c 7e5c 843c
00000390: 114f e63c c54c 90bc 181f ccbc 898a be3b
000003a0: 5848 f6bc 864a 083c 2e00 5ebc 0dd4 06bd
000003b0: 5aaa 153d 9ddd 253c 2944 323d c6cd b43d
000003c0: ffdc 2a3d b15c 993d 0133 ef3b d8b4 40bd
000003d0: a3a6 59bd bec7 2cbd 2261 8dbd 3dd0 13bd
000003e0: 853a 7fbd 6461 14bd 6990 92bc aa37 29bd
000003f0: 7e33 703c 072a 9c3d 2d6a a63d 7ebe 1e3c

conv2.bias f4 [64]
-0.0532746 -0.014331946 0.039851792 -0.033727653 -0.015283909 0.00316399 -0.021126159 0.0027208955
-0.049953207 0.013810747 0.057590157 0.009546627 0.058642197 -0.057169016 -0.024555909 -0.01674638
0.04559619 -0.054548606 -0.008495391 -0.05409449 0.012616181 -0.051573753 -0.056924623 -0.040041324
-0.021838274 0.036000174 0.011032762 -0.050429817 0.058093656 -7.057334e-05 0.016307687 -0.021944435
-0.026815731 -0.043804873 -0.043433044 -0.03179233 0.031750627 -0.02198605 -0.050268576 0.022580609
-0.018024145 -0.039845113 0.04835072 -0.057301715 -0.06156587 0.036921937 0.037510082 -0.025864242
0.046326477 -0.035598166 -0.027533755 -0.0030294196 -0.024044402 0.032604832 -0.051608037 0.046349503
0.034705218 -0.037581228 -0.027583117 0.010629511 -0.004530413 -0.052062202 0.046551257 0.046327822
00000000: 7836 5abd 8ad0 6abc a23b 233d 0226 0abd
00000010: 5c69 7abc f25a 4f3b c410 adbc 0d51 323b
00000020: bc9b 4cbd 7946 623c a8e3 6b3d 7569 1c3c
00000030: cd32 703d 0f2a 6abd 7929 c9bc b42f 89bc
00000040: 12c3 3a3d 5c6e 5fbd 4130 0bbc 2f92 5dbd
00000050: 19b4 4e3c 003f 53bd cb29 69bd 5f02 24bd
00000060: 2ee6 b2bc eb74 133d c2c2 343c 7f8f 4ebd
00000070: 9df3 6d3d c600 94b8 b397 853c d1c4 b3bc
00000080: aaac dbbc bd6c 33bd d9e6 31bd ad38 02bd
00000090: f20c 023d 171c b4bc 6ce6 4dbd f8fa b83c
000000a0: 5fa7 93bc a134 23bd 680b 463d 34b5 6abd
000000b0: 7e2c 7cbd 753b 173d 2ca4 193d 3fe1 d3bc
000000c0: d5c0 3d3d 62cf 11bd 788e e1bc 3a89 46bb
000000d0: c4f8 c4bc a58c 053d f362 53bd fad8 3d3d
000000e0: 0f27 0e3d c6ee 19bd fdf5 e1bc 6727 2e3c
000000f0: dc73 94bb 2d3f 55bd 88ac 3e3d 3ec2 3d3d

batchnorm2.weight f4 [64]
1.0263134 1.0076534 0.96925753 1.0035157 0.93865585 1.0328252 0.9951301 1.0631621
1.0395936 1.0147386 1.0223678 1.0392103 1.0101885 1.024221 1.0526838 0.9237569
0.9860046 0.9865542 0.9723108 1.0095885 1.0335708 1.0202191 1.0123149 1.0399412
1.0079284 1.0357614 0.99478245 0.96380025 0.9200642 1.0542127 0.9320229 0.96147794
1.0104115 1.0063748 0.9581103 1.002195 1.038416 1.0482177 1.035386 0.9545423
0.9524131 1.0009042 1.0136371 1.0161222 1.0102172 1.0277549 0.94054353 1.0058877
1.0264789 1.0485376 0.97562724 1.0140369 0.96018386 1.0494471 0.97755843 1.0263214
0.9803934 0.9767926 0.9995681 1.0075899 1.0607542 0.9887308 0.9530316 1.0183398
00000000: 3d5e 833f c9fa 803f 4321 783f 3473 803f
00000010: c04b 703f 9e33 843f d9c0 7e3f b215 883f
00000020: 6711 853f f4e2 813f f3dc 823f d804 853f
00000030: db4d 813f ac19 833f 58be 863f 557b 6c3f
00000040: cc6a 7c3f d18e 7c3f 5ce9 783f 323a 813f
00000050: 0c4c 843f 8a96 823f 8993 813f cb1c 853f
00000060: cc03 813f d493 843f 10aa 7e3f 9dbb 763f
00000070: 5489 6b3f 71f0 863f 0e99 6e3f 6b23 763f
00000080: 2a55 813f e4d0 803f b746 753f ed47 803f
00000090: d1ea 843f ff2b 863f 8787 843f e25c 743f
000000a0: 58d1 733f a11d 803f dcbe 813f 4b10 823f
000000b0: cc4e 813f 798d 833f 76c7 703f eec0 803f
000000c0: a963 833f 7b36 863f b5c2 793f f6cb 813f
000000d0: 9cce 753f 4854 863f 4541 7a3f 805e 833f
000000e0: 10fb 7a3f 140f 7a3f b2e3 7f3f b5f8 803f
000000f0: cbc6 873f 761d 7d3f e1f9 733f f558 823f

batchnorm2.bias f4 [64]
-0.027259083 -0.07554579 -0.013368647 -0.019839987 -0.07224552 -0.034549017 -0.046124455 -0.027373122
-0.010236174 -0.07610488 -0.05991055 -0.05420759 0.003890937 0.05400108 -0.04019429 -0.043096326
-0.003948105 -0.023453353 -0.061758332 -0.0015510394 -0.051115364 -0.03563623 -0.026781231 -0.040532153
-0.040190835 -0.061850037 -0.021293176 -0.055823483 -0.12208091 -0.055478513 -0.085278004 -0.06016833
-0.032969423 -0.06351466 -0.050736565 -0.047287095 0.01122247 -0.060661722 -0.05028668 -0.08203688
-0.046636235 -0.032324705 -0.046100542 -0.07268658 -0.04335681 -0.05209627 -0.110390864 -0.044712007
-0.058086403 0.035343736 -0.014241549 -0.057860684 -0.07961856 -0.022107504 0.004607597 -0.042044804
-0.016647762 -0.07181449 -0.059474878 -0.04811326 -0.06484346 -0.0035130887 -0.06572868 -0.11178879
00000000: 714e dfbc c0b7 9abd 2b08 5bbc 7887 a2bc
00000010: 76f5 93bd 4583 0dbd ffec 3cbd 993d e0bc
00000020: a0b5 27bc e0dc 9bbd c464 75bd c708 5ebd
00000030: 17ff 7e3b 3d30 5d3d c5a2 24bd c685 30bd
00000040: 1b5f 81bb 3f21 c0bc 4ef6 7cbd 3f4c cbba
00000050: 585e 51bd 4cf7 11bd 5064 dbbc 0b05 26bd
00000060: 259f 24bd 7756 7dbd 076f aebc 2aa7 64bd
00000070: 8e05 fabd 703d 63bd 3ca6 aebd 1173 76bd
00000080: f20a 07bd f913 82bd 25d1 4fbd 1db0 41bd
00000090: 73de 373c 6d78 78bd 68f9 4dbd f402 a8bd
000000a0: a305 3fbd e966 04bd ecd3 3cbd b4dc 94bd
000000b0: e996 31bd e662 55bd 9b14 e2bd f023 37bd
000000c0: 02ec 6dbd 98c4 103d 6355 69bc 53ff 6cbd
000000d0: 0e0f a3bd cc1a b5bc 53fb 963b 2c37 2cbd
000000e0: e360 88bc 7a13 93bd ee9b 73bd 6912 45bd
000000f0: a6cc 84bd d93b 66bb c29c 86bd 85f1 e4bd

batchnorm2.running_mean f4 [64]
-0.35763183 -1.0802708 -0.6004086 -1.3831682 -0.78650576 -1.356272 -1.1144208 -0.54600084
-0.4024771 -1.5449413 -0.60138196 -0.6100568 -0.13843505 -0.6727104 -1.3234205 -1.0444398
0.45280695 -1.1479466 -0.36146322 -0.5864396 -0.9405262 -0.71331626 -0.34017873 -1.6555729
-0.7564338 -0.9256193 -0.9521746 -0.658392 -0.6822122 -0.9407147 -1.2150602 -0.3035457
-0.43510157 -1.196371 -1.0628446 -1.1528047 -0.30361846 -0.5996086 -0.5720248 -0.6728307
-0.8561203 -1.5325555 -1.130663 -0.74263597 -1.0893865 -0.98621505 -1.0689478 -0.4899084
-0.9435148 -0.23747656 -1.2604731 -1.1098057 -1.4354886 -0.40698838 -0.70512295 -0.87426484
0.6606177 -1.1769472 -1.1933134 -1.0421308 -0.7220016 -0.8373983 -1.0008026 -0.82925856
00000000: 851b b7be 5046 8abf 61b4 19bf a80b b1bf
00000010: 7158 49bf 529a adbf 57a5 8ebf b6c6 0bbf
00000020: 7a11 cebe a3c0 c5bf 2bf4 19bf af2c 1cbf
00000030: ebc1 0dbe c036 2cbf d865 a9bf 34b0 85bf
00000040: 50d6 e73e eaef 92bf b511 b9be e820 16bf
00000050: 53c6 70bf e59b 36bf e82b aebe d0e9 d3bf
00000060: a5a5 41bf 63f5 6cbf b7c1 73bf 618c 28bf
00000070: 75a5 2ebf aed2 70bf 1887 9bbf 586a 9bbe
00000080: a2c5 debe af22 99bf 4b0b 88bf 1b8f 93bf
00000090: e173 9bbe f37f 19bf 3870 12bf a23e 2cbf
000000a0: b32a 5bbf c72a c4bf 91b9 90bf 641d 3ebf
000000b0: 0471 8bbf 9778 7cbf 48d3 88bf 46d5 fabe
000000c0: 308a 71bf 0e2d 73be 2f57 a1bf 1d0e 8ebf
000000d0: 17be b7bf c860 d0be f082 34bf d2cf 5fbf
000000e0: 3e1e 293f 35a6 96bf 7ebe 98bf 8b64 85bf
000000f0: 19d5 38bf bc5f 56bf 4d1a 80bf 4a4a 54bf

batchnorm2.running_var f4 [64]
1.0163509 2.071592 0.6337304 0.9547631 0.899998 2.2861078 1.0261233 0.8527068
0.9915925 3.0959547 0.5977351 0.9890604 0.5282367 0.45336887 0.575305 0.8929783
1.0178151 0.82320327 1.1763402 0.25377125 1.4948971 1.1222552 0.40894148 4.080922
0.86342216 1.4375428 2.176655 0.94538575 1.1249543 1.7494355 0.9405471 0.60966676
0.6806082 0.4927615 0.53489804 1.1963538 0.7122879 0.70643455 0.8307966 0.1730232
1.0439619 1.135696 2.715498 0.5217565 0.7527933 2.0991125 0.6900451 0.7184025
2.2395644 0.39196658 0.85449564 2.362185 0.88992023 0.55664307 0.9407365 0.91603726
0.4188005 0.61420184 0.4797868 1.7116637 1.391793 0.55829215 0.45130804 1.7576401
00000000: c917 823f f794 0440 283c 223f 5b6b 743f
00000010: 4566 663f 974f 1240 0258 833f fe4a 5a3f
00000020: 02d9 7d3f 1f24 4640 2b05 193f 1033 7d3f
00000030: 853a 073f f71f e83e 3047 133f 3a9a 643f
00000040: c447 823f 73bd 523f 5192 963f 4eee 813e
00000050: ca58 bf3f 0fa6 8f3f c760 d13e ea96 8240
00000060: 3c09 5d3f 6701 b83f 514e 0b40 cd04 723f
00000070: 81fe 8f3f 81ed df3f b2c7 703f 1f13 1c3f
00000080: 573c 2e3f 3c4b fc3e 14ef 083f 1f22 993f
00000090: 8058 363f e5d8 343f 16af 543f fe2c 313e
000000a0: 8ba0 853f 7d5e 913f b8ca 2d40 d591 053f
000000b0: 10b7 403f dc57 0640 cca6 303f 3ae9 373f
000000c0: 0655 0f40 d8af c83e 3ac0 5a3f 0a2e 1740
000000d0: d0d1 633f 2980 0e3f 1bd4 703f 6b81 6a3f
000000e0: 056d d63e 553c 1d3f 9ea6 f53e cc17 db3f
000000f0: 4626 b23f 3cec 0e3f d911 e73e 5afa e03f

conv3.weight f4 [128, 64, 3, 3]
0.01984723 -0.020906128 -0.019961894 -0.029269224 -0.01708253 0.012719004 0.025003182 -0.025372434
-0.059747536 -0.038879104 -0.015178422 -0.050768506 0.023661008 -0.0017301529 -0.035563078 -0.01090548
-0.026298258 -0.051808786 0.034553207 -0.011633602 -0.04179957 0.004091798 -0.011733721 -0.045170926
-0.03830287 -0.023482207 0.013141884 0.0017358066 -0.005250033 -0.015401499 0.032266337 0.058514003
0.027381659 0.0034089321 0.037635036 -0.0038056097 -0.03912097 0.011926499 -0.034779835 -0.037827384
0.003976056 -0.04066652 -0.03719333 0.03734308 0.021893637 0.023776578 0.0026754853 0.0020099164
0.01676791 0.007343427 0.010004506 0.039406028 -0.0048286426 -0.018395161 0.027306668 -0.012095647
0.013268498 -0.018672246 0.025673576 -0.012755385 -0.056689322 -0.052097846 -0.036229216 0.018292673
0.022054689 0.014116377 -0.010774122 0.019816767 0.017243214 0.0025567962 -0.07094324 0.0009637459
0.027744923 0.022536378 0.015275316 0.06212488 0.01157116 -0.054117855 -0.032272723 0.00071549
0.0032440042 0.009737273 0.003849079 0.034286447 0.03676846 -0.018303296 -0.010720905 0.0029421207
0.007875564 -0.011590496 -0.013718864 0.048605878 -0.042866763 0.008452272 0.009471749 -0.03918219
-0.0070835482 -0.03839397 -0.03440425 -0.042588994 -0.0050957245 -0.023956139 0.014226476 0.0071145734
-0.011775927 -0.008332171 -0.038132526 0.005468455 -0.024416506 -0.036692128 -0.018632911 -0.07710293
-0.04711903 -0.019552145 -0.009686256 -0.06989187 -0.07562842 0.01587542 0.038745616 -0.022334537
-0.028276451 0.0368994 -0.02076429 -0.08488855 -0.07653574 -0.009123683 0.011414653 0.016753644
-0.036913276 -0.028953226 0.06936662 0.041199744 -0.017224988 -0.006896449 0.017781666 -0.017411707
0.021863028 -0.023913778 0.0005710546 0.03054794 -0.01793988 -0.017191421 -0.030419653 -0.0005959291
0.030603176 0.015648419 0.035682008 -0.041789416 -0.04350654 0.018125912 0.03333047 0.011169683
-0.036745545 -0.022756422 0.0040079043 -0.028301293 -0.009475055 0.037473615 0.012192035 0.008379544
-0.019807734 0.025341148 -0.035406496 -0.011796317 -0.034269366 0.038357437 -0.047637615 0.016760416
-0.018787786 -0.0017098547 0.012067627 0.03899271 0.015392187 -0.0037230337 -0.0066410066 0.0039024064
0.03112887 -0.0032035697 -0.013996047 0.033059396 0.01765825 0.032917816 0.026521277 0.03143421
-0.03537366 -0.015014525 -0.024054011 -0.020057445 0.016621323 0.044569913 0.04518289 0.011416754
0.011674743 -0.024114227 0.0082104085 0.006730796 0.007787293 -0.020112017 0.024522379 -0.019217635
0.04145391 -0.015050328 -0.039454006 0.009680487 -0.014284136 0.0005833802 -0.05963465 -0.019869827
-0.010256517 -0.046812225 0.008820894 -0.0027808957 0.039089765 0.05409839 0.004489239 -0.025756223
-0.035536602 -0.0009437613 -0.011117283 0.03721789 0.005039211 -0.031004569 -0.02260263 -0.047167357
-0.0010216356 -0.007100572 -0.03316915 -0.021266546 -0.011155955 -0.020752754 0.033195466 0.017205356
-0.01944141 -0.080098465 0.014620753 0.061373975 -0.028197724 -0.0008279021 -0.029602285 -0.008785601
-0.03883034 0.00455809 0.036429435 0.045714505 -0.056261815 0.011355987 0.054099772 0.030394273
0.025678184 -0.043154243 -0.026001666 0.016943121 -0.049320288 0.0004338121 0.04109575 0.010361608
00000000: a896 a23c 5443 abbc 2087 a3bc 03c6 efbc
00000010: a9f0 8bbc 5f63 503c 79d3 cc3c dad9 cfbc
00000020: d5b9 74bd b23f 1fbd ebae 78bc a3f2 4fbd
00000030: bbd4 c13c 4cc6 e2ba 97aa 11bd e6ac 32bc
00000040: 726f d7bc 7335 54bd aa87 0d3d dd9a 3ebc
00000050: 0736 2bbd 7d14 863b cb3e 40bc 2605 39bd
00000060: 78e3 1cbd c25d c0bc 0e51 573c 0184 e33a
00000070: 7808 acbb 9256 7cbc b529 043d 61ac 6f3d
00000080: 804f e03c 6468 5f3b 3227 1a3d 8967 79bb
00000090: 4f3d 20bd 5d67 433c 4d75 0ebd e3f0 1abd
000000a0: 9349 823b f091 26bd 0858 18bd 0ff5 183d
000000b0: 495a b33c 19c7 c23c 3257 2f3b cdb8 033b
000000c0: db5c 893c 21a1 f03b f1e9 233c 3768 213d
000000d0: 9739 9ebb 73b1 96bc 3cb2 df3c d22c 46bc
000000e0: 1d64 593c 8af6 98bc 6451 d23c f6fb 50bc
000000f0: 1033 68bd 8d64 55bd 1665 14bd 84da 953c
00000100: 09ac b43c 6048 673c f185 30bc c656 a23c
00000110: a441 8d3c ec8f 273b b04a 91bd e4a3 7c3a
00000120: 5249 e33c 369e b83c 5245 7a3c a876 7e3d
00000130: f694 3d3c afaa 5dbd 6730 04bd b98f 3b3a
00000140: 5c99 543b 1589 1f3c d440 7c3b f26f 0c3d
00000150: 869a 163d cbf0 95bc bca6 2fbc 98d0 403b
00000160: 8208 013c 10e6 3dbc 16c5 60bc f516 473d
00000170: 0f95 2fbd 667b 0a3c 652f 1b3c 817d 20bd
00000180: 1c1d e8bb ff42 1dbd 79eb 0cbd cc71 2ebd
00000190: 09fa a6bb aa3f c4bc 2a16 693c 5e21 e93b
000001a0: d1ef 40bc a883 08bc da30 1cbd ba30 b33b
000001b0: 2005 c8bc 7c4a 16bd 0ca4 98bc 24e8 9dbd
000001c0: e2ff 40bd d22b a0bc 1ab3 1ebc 7823 8fbd
000001d0: 13e3 9abd 2b0d 823c b9b3 1e3d ebf6 b6bc
000001e0: 04a4 e7bc d323 173d df19 aabc 0cda adbd
000001f0: c5be 9cbd 807b 15bc 8604 3b3c f03e 893c
00000200: 6032 17bd 512f edbc 1610 8e3d 10c1 283d
00000210: 6b1b 8dbc 9bfb e1bb dbaa 913c ffa2 8ebc
00000220: 181a b33c d4e6 c3bc d3b2 153a ac3f fa3c
00000230: a8f6 92bc 06d5 8cbc a332 f9bc 2038 1cba
00000240: 83b3 fa3c 1d31 803c 4c27 123d 612b 2bbd
00000250: ea33 32bd cb7c 943c 8885 083d 0c01 373c
00000260: 7f82 16bd ad6b babc bd54 833b 1dd8 e7bc
00000270: 433d 1bbc ef7d 193d 1ac1 473c 5b4a 093c
00000280: d443 a2bc 3d98 cf3c 6706 11bd 5745 41bc
00000290: 095e 0cbd b01c 1d3d a91f 43bd 244d 893c
000002a0: d8e8 99bc 341d e0ba 4cb7 453c d2b6 1f3d
000002b0: 832f 7c3c 24fe 73bb cd9c d9bb 84bf 7f3b
000002c0: f901 ff3c fbf2 51bb ad4f 65bc 4a69 073d
000002d0: 09a8 903c d5d4 063d 2643 d93c 28c1 003d
000002e0: f9e3 10bd 7bff 75bc eb0c c5bc 834f a4bc
000002f0: 7129 883c f18e 363d b211 393d 560d 3b3c
00000300: 6c47 3f3c 338b c5bc f384 063c 028e dc3b
00000310: 8c2c ff3b f5c1 a4bc 28e3 c83c 4d6e 9dbc
00000320: 93cb 293d a795 76bc 869a 21bd e89a 1e3c
00000330: 0208 6abc fced 183a 7643 74bd 0cc6 a2bc
00000340: f30a 28bc 2dbe 3fbd 8385 103c b03f 36bb
00000350: 971c 203d 4696 5d3d 771a 933b b7fe d2bc
00000360: d48e 11bd c066 77ba 4425 36bc c971 183d
00000370: f71f a53b 4bfd fdbc 2729 b9bc 8f32 41bd
00000380: 67e8 85ba eaab e8bb 60dc 07bd 2e37 aebc
00000390: 77c7 36bc ae01 aabc f8f7 073d 3ff2 8c3c
000003a0: 9843 9fbc aa0a a4bd e28b 6f3c 4763 7b3d
000003b0: eafe e6bc 9207 59ba 7e80 f2bc 7bf1 0fbc
000003c0: 900c 1fbd 085c 953b 0837 153d 223f 3b3d
000003d0: ca72 66bd 760e 3a3c b997 5d3d 69fd f83c
000003e0: 0e5b d23c 81c2 30bd 7201 d5bc 4dcc 8a3c
000003f0: 1204 4abd 4671 e339 0454 283d bcc3 293c

conv3.bias f4 [128]
0.0346537 0.0012699481 0.039819 -0.014922595 0.02267167 -0.028126119 -0.016938983 -0.015702466
0.02592668 -0.00014143398 -0.018467547 0.012606776 -0.0003743973 -0.024807256 0.03711309 -0.01836591
-0.04477707 0.015763272 0.014034259 -0.036346816 0.033931013 0.026953077 -0.013338582 -0.026801202
-0.032180313 0.036118805 0.007139224 -0.011180722 -0.033679202 -0.041632812 -0.019940663 0.0042018127
0.020838482 0.028241951 0.025253944 0.039441075 -0.010621692 0.016564598 -0.003756581 0.035955258
-0.0065858616 -0.022405459 0.026919754 0.002887714 -0.026199147 -0.034277778 -0.0039091334 0.006854915
0.019450596 0.034511432 -0.011300698 -0.0018367018 -0.034736 0.017822525 -0.0341489 -0.012736192
-0.012165149 -0.024280487 0.029237173 -0.026607713 0.020389108 -0.019278169 -0.03310302 -0.021046305
-0.010593186 -0.01930823 0.009360332 0.008286754 -0.0024188152 -0.015837526 0.010477192 0.0058495686
0.036852557 0.023121387 0.028645342 -0.037418447 0.0044865618 0.0106291585 0.007183331 0.016119953
-0.035364803 -0.041721765 0.01622715 0.037167065 0.018549237 -0.017143026 -0.010722493 -0.006455441
0.014248045 0.03301961 0.025812373 0.013524128 -0.008866533 -0.008268336 -0.023269212 -0.021904092
-0.0067217913 0.025133554 0.017817559 0.01905884 0.031973787 0.004041204 -0.023862153 -0.028752655
-0.0065244385 -0.019590514 0.037615858 -0.024498912 0.023293193 -0.026651388 0.0022400054 0.009348783
0.012009825 -0.014865678 -0.0076124035 -0.0032627948 0.020040251 0.03419309 0.020245384 -0.03995272
0.021505397 -0.01925346 0.007144873 0.0012090505 -0.00081673404 0.010909639 0.007992932 -0.016724896
00000000: 0af1 0d3d 6374 a63a 3f19 233d e67d 74bc
00000010: f0b9 b93c bf68 e6bc 9fc3 8abc 75a2 80bc
00000020: 3064 d43c e54d 14b9 4149 97bc a78c 4e3c
00000030: c14a c4b9 9638 cbbc e503 183d 1b74 96bc
00000040: 2968 37bd fa21 813c f3ef 653c 66e0 14bd
00000050: 3ffb 0a3d b3cc dc3c 118a 5abc 328e dbbc
00000060: 81cf 03bd 50f1 133d 27f0 e93b 592f 37bc
00000070: 34f3 09bd 2b87 2abd 9a5a a3bc 5caf 893b
00000080: 77b5 aa3c aa5b e73c 5ce1 ce3c f78c 213d
00000090: 9b06 2ebc 7bb2 873c f930 76bb d245 133d
000000a0: 36ce d7bb a78b b7bc d186 dc3c cd3f 3d3b
000000b0: 989f d6bc db66 0cbd 3018 80bb 329f e03b
000000c0: db56 9f3c dc5b 0d3d 9026 39bc 7cbd f0ba
000000d0: 5647 0ebd 8b00 923c b8df 0bbd 76ab 50bc
000000e0: 5550 47bc dfe7 c6bc cc82 ef3c 6bf8 d9bc
000000f0: 0f07 a73c 40ed 9dbc 0897 07bd 4d69 acbc
00000100: 0b8f 2dbc 4b2c 9ebc 145c 193c 2ac5 073c
00000110: fc84 1ebb b3bd 81bc 87a8 2b3c bdad bf3b
00000120: b5f2 163d 1069 bd3c a3a9 ea3c 1644 19bd
00000130: 0204 933b ec25 2e3c 2662 eb3b fe0d 843c
00000140: afda 10bd 71e4 2abd cdee 843c 7e3c 183d
00000150: 92f4 973c 886f 8cbc 65ad 2fbc 2a88 d3bb
00000160: a270 693c 923f 073d 7874 d33c 4e94 5d3c
00000170: ef44 11bc ea77 07bc 139f bebc 3670 b3bc
00000180: 7942 dcbb e2e4 cd3c 21f6 913c 4921 9c3c
00000190: f2f6 023d 146c 843b 907a c3bc b08a ebbc
000001a0: f5ca d5bb 497c a0bc 1613 1a3d f1b1 c8bc
000001b0: 5ed1 be3c 0354 dabc 0ecd 123b a32b 193c
000001c0: dbc4 443c 2c8f 73bc 7871 f9bb 9dd4 55bb
000001d0: 742b a43c 0e0e 0c3d a6d9 a53c 77a5 23bd
000001e0: 162c b03c 6fb9 9dbc 8a1f ea3b 0179 9e3a
000001f0: 181a 56ba 58be 323c c9f4 023c a602 89bc

batchnorm3.weight f4 [128]
0.98648334 1.0130541 0.99509156 1.0373394 0.9834042 1.0157567 1.0005634 1.035466
0.9907584 1.0140646 0.9676349 1.0048903 0.9894607 1.0691664 1.0045663 0.97156173
1.0454737 1.0779887 0.97106797 0.95725477 1.0261241 0.9657168 1.0229074 1.0004344
1.0051818 0.98733485 0.9700299 0.995199 0.9882471 0.9714179 0.97474706 1.0447274
0.9850305 0.98124313 1.030894 1.0165366 0.9760028 0.9688959 0.98002774 1.013419
0.9977245 0.9685287 1.0054774 0.9872635 1.0269136 1.0179662 0.98455304 1.0211589
0.99284905 1.0333732 1.0094318 0.96010673 1.0025235 0.9325938 0.98849326 1.0169153
0.9900646 1.0040175 0.9539266 0.99476856 1.0229203 1.0095586 1.0300173 0.97685826
0.99527806 1.0024352 0.97086006 0.98834896 0.97736806 1.0017726 0.98699754 1.0143527
0.99779475 0.98633814 0.9865013 0.9803508 1.0149331 0.97745496 1.0107707 1.0014628
1.0352324 0.98278 1.0181888 0.9988239 1.0233073 0.9904654 0.99199533 1.0061755
1.0052835 0.98833233 0.9642189 0.98670363 0.9908157 1.0105647 1.0252644 1.020909
0.9726976 1.0106611 0.96705 1.0010787 1.0042814 0.9898021 1.0279571 1.0133824
0.9709681 0.9837262 0.99752647 1.0011343 1.0001303 1.0472714 1.0445446 0.9972397
0.9554544 0.9939926 0.98475087 0.9764492 1.0561204 0.9765053 0.977913 0.9750429
1.0135763 1.008688 0.9747868 0.9893155 0.9593881 1.0248711 0.96030873 0.99961907
00000000: 2c8a 7c3f c2ab 813f 52be 7e3f 8ac7 843f
00000010: 61c0 7b3f 5104 823f 7612 803f 268a 843f
00000020: 58a2 7d3f decc 813f ecb6 773f 3fa0 803f
00000030: 4c4d 7d3f 72da 883f a195 803f 45b8 783f
00000040: 15d2 853f 89fb 893f e997 783f a60e 753f
00000050: 0958 833f 3739 773f a1ee 823f 3c0e 803f
00000060: cca9 803f fac1 7c3f e153 783f 5dc5 7e3f
00000070: c3fd 7c3f d8ae 783f 0689 793f a1b9 853f
00000080: f52a 7c3f c032 7b3f 56f4 833f df1d 823f
00000090: 52db 793f 9009 783f 19e3 7a3f b7b7 813f
000000a0: df6a 7f3f 7ff1 773f 7cb3 803f 4dbd 7c3f
000000b0: e871 833f b74c 823f ab0b 7c3f 56b5 823f
000000c0: 5b2b 7e3f 9345 843f 1035 813f 8ec9 753f
000000d0: b152 803f 78be 6e3f e50d 7d3f 482a 823f
000000e0: e074 7d3f a583 803f 8934 743f 27a9 7e3f
000000f0: 0def 823f 3739 813f 9bd7 833f 6213 7a3f
00000100: 8bca 7e3f cc4f 803f 498a 783f 7004 7d3f
00000110: cb34 7a3f 163a 803f dfab 7c3f 4fd6 813f
00000120: 7a6f 7f3f a880 7c3f 598b 7c3f 45f8 7a3f
00000130: 54e9 813f 7d3a 7a3f ef60 813f ef2f 803f
00000140: 7f82 843f 7897 7b3f 0354 823f ecb2 7f3f
00000150: bcfb 823f 248f 7d3f 68f3 7d3f 5cca 803f
00000160: 21ad 803f 5903 7d3f 0dd7 763f 9c98 7c3f
00000170: 19a6 7d3f 2f5a 813f dd3b 833f 25ad 823f
00000180: b602 793f 585d 813f 9790 773f 5923 803f
00000190: 4b8c 803f ac63 7d3f 1994 833f 84b6 813f
000001a0: 5e91 783f 7bd5 7b3f e55d 7f3f 2b25 803f
000001b0: 4504 803f fd0c 863f a3b3 853f 1a4b 7f3f
000001c0: a998 743f 4d76 7e3f a218 7c3f 93f8 793f
000001d0: f42e 873f 40fc 793f 8258 7a3f 699c 793f
000001e0: debc 813f b01c 813f a18b 793f c843 7d3f
000001f0: 759a 753f fa2e 833f cbd6 753f 09e7 7f3f

batchnorm3.bias f4 [128]
-0.03036569 -0.009778858 -0.02647479 -0.0017163552 0.011123588 0.011044537 0.009732222 -0.008904155
-0.049876038 -0.06571993 -0.04755074 -0.019502515 -0.08252365 -0.049288582 0.018461216 -0.053997166
0.02065202 -0.040020786 -0.05173478 -0.06933453 0.0007051211 -0.032126278 -0.013780907 -0.019645648
-0.0347879 -0.07073727 -0.02491386 -0.044603795 -0.043901686 -0.03910013 0.010730713 -0.018303024
-0.040447284 0.010819587 -0.0435602 -0.029582813 -0.026210671 -0.021411061 -0.031283777 0.0047958503
-0.011076696 -0.028640345 -0.024379438 -0.034220207 -0.013207905 -0.031426456 -0.0039950423 -0.059325032
-0.06348661 -0.010698151 -0.023521721 -0.036225706 -0.046133168 -0.036425177 -0.014401566 -0.04845754
-0.07151263 -0.030138908 -0.028598582 -0.056237493 -0.020678198 -0.041926913 -0.0031343678 -0.079897
-0.018179353 -0.05776959 -0.0059235543 -0.076275185 -0.013198148 -0.07050008 -0.042688202 -0.039678883
-0.010751992 -0.044294644 -0.004513381 -0.065472156 -0.021988083 -0.021724641 -0.059520286 -0.008089742
0.0066894116 -0.040690873 -0.004105125 -0.041913323 -0.0416979 -0.035630066 -0.046125505 -0.016729621
-0.024793092 -0.02539093 -0.03424045 -0.027575655 -0.043297287 -0.0042923405 -0.06316667 -0.022787414
-0.0036601063 -0.023691766 -0.03760079 0.024361156 -0.06180093 -1.8618342e-05 -0.042245705 0.024631755
-0.0271477 -0.025115298 -0.040045377 -0.05916979 0.025541952 -0.035415582 -0.006609238 -0.019322947
-0.025507346 -0.043072533 -0.010653118 0.02421109 0.041810878 -0.055651665 -0.043446265 -0.0479609
-0.042927194 -0.019849831 -0.038035065 -0.0899888 -0.028276525 -0.022922019 -0.010674165 -0.038403943
00000000: 78c1 f8bc 8137 20bc a9e1 d8bc 53f7 e0ba
00000010: b63f 363c 25f4 343c e673 1f3c bce2 11bc
00000020: d14a 4cbd 2c98 86bd 91c4 42bd bdc3 9fbc
00000030: 2902 a9bd d3e2 49bd fa3b 973c 222c 5dbd
00000040: 6d2e a93c d6ec 23bd d9e7 53bd 43ff 8dbd
00000050: e0d7 383a d896 03bd 50c9 61bc e9ef a0bc
00000060: c27d 0ebd b4de 90bd 2718 ccbc 78b2 36bd
00000070: 41d2 33bd 7527 20bd dfcf 2f3c 39f0 95bc
00000080: 0dac 25bd a344 313c 2e6c 32bd a857 f2bc
00000090: c3b7 d6bc 4066 afbc 6b23 00bd 8226 9d3b
000000a0: 087b 35bc 289f eabc 63b7 c7bc 7d2a 0cbd
000000b0: f865 58bc 07b9 00bd d8e8 82bb cefe 72bd
000000c0: 4505 82bd 4c47 2fbc a0b0 c0bc 6861 14bd
000000d0: 22f6 3cbd 9132 15bd 8cf4 6bbc 6a7b 46bd
000000e0: 3775 92bd dfe5 f6bc 9347 eabc 4959 66bd
000000f0: 5365 a9bc 8ebb 2bbd f769 4dbb 0aa1 a3bd
00000100: deec 94bc ce9f 6cbd 601a c2bb 2a36 9cbd
00000110: 0c3d 58bc 5962 90bd d3d9 2ebd 5386 22bd
00000120: 2029 30bc 4d6e 35bd fce4 93bb 4416 86bd
00000130: 5a20 b4bc e0f7 b1bc 8bcb 73bd d68a 04bc
00000140: da32 db3b 79ab 26bd 4984 86bb 4ead 2bbd
00000150: 6bcb 2abd d5f0 11bd 19ee 3cbd 8f0c 89bc
00000160: e21a cbbc a400 d0bc b73f 0cbd 57e6 e1bc
00000170: 7f58 31bd c3a6 8cbb 875d 81bd acac babc
00000180: 65de 6fbb 3c15 c2bc 4903 1abd 0c91 c73c
00000190: f922 7dbd 962e 9cb7 d509 2dbd 89c8 c93c
000001a0: da64 debc 99be cdbc 9f06 24bd 065c 72bd
000001b0: 5b3d d13c ee0f 11bd 4f92 d8bb 284b 9ebc
000001c0: c8f4 d0bc d36c 30bd 6a8a 2ebc 5656 c63c
000001d0: e241 2b3d 00f3 63bd b6f4 31bd a672 44bd
000001e0: 6dd4 2fbd 1d9c a2bc a8ca 1bbd 0c4c b8bd
000001f0: 2ca4 e7bc f5c6 bbbc b1e2 2ebc 744d 1dbd

batchnorm3.running_mean f4 [128]
-1.684152 -0.7900197 -0.8013904 0.036383145 -1.3475664 1.1979897 -0.60646665 -0.74938166
-1.3915185 -1.4272399 -0.77464116 0.16153954 -0.04662835 -0.8421953 0.3702176 -1.2522143
-1.822405 -2.0806732 -0.7072046 -1.8129815 0.38670206 -0.06829679 -0.663876 -0.9163474
-0.37769443 1.0878234 -0.6336124 0.006516102 -1.1428806 -0.5804876 -0.34085494 0.4848877
-0.2570792 0.3645754 0.5646686 0.39273816 -2.76213 -0.39400905 0.9721225 -0.80379224
-1.6774645 0.70623857 1.0498651 0.35257694 -0.44581333 -0.719361 -1.2952034 1.0694858
-0.5815909 -1.8469937 -1.5696758 -0.84325093 0.07165214 0.48391858 -0.49096203 1.3454646
-0.6489591 0.554491 -2.1615868 -0.31580332 -1.4650507 -1.079797 -0.6953379 -0.67533636
0.29875734 -1.1790938 -0.6229784 0.10047325 0.2207259 -0.6405313 1.2892746 1.2478205
0.32927248 -0.37781426 -0.70359105 -0.5922567 -0.019683694 -0.55478555 -0.14246464 -0.34725037
-0.2626032 -0.86906046 0.37136152 -0.83441526 -0.83753717 -0.67756027 0.35900468 0.33514863
-1.0622329 -1.6072477 -1.2253146 -0.2705427 -0.84201545 0.4037944 -1.3814607 -0.27451307
-1.4811412 0.6540053 0.5136164 0.8023776 -0.48712072 0.45446616 -1.355814 0.0033401265
-1.513053 -2.2438478 -0.3671338 -2.2481074 -1.9125783 0.8268173 -0.40739548 -0.089200296
-0.7175294 -0.98070806 -3.5267785 -0.4423105 0.482582 -1.2617152 -0.10760848 0.51413995
0.5969405 0.022253111 0.2735324 0.8684383 -2.2832036 0.41821378 -0.1192804 0.42648008
00000000: 4b92 d7bf bb3e 4abf ec27 4dbf 7e06 153d
00000010: 0e7d acbf ba57 993f 6641 1bbf 7ad7 3fbf
00000020: 471d b2bf ccaf b6bf e24e 46bf 9f6a 253e
00000030: 5efd 3ebd 1c9a 57bf 298d bd3e 8f48 a0bf
00000040: 9144 e9bf c029 05c0 5c0b 35bf c70f e8bf
00000050: d0fd c53e 30df 8bbd c7f3 29bf be95 6abf
00000060: 2a61 c1be cc3d 8b3f 6c34 22bf 0685 d53b
00000070: e949 92bf d69a 14bf 8a84 aebe 3343 f83e
00000080: e39f 83be a0a9 ba3e 1f8e 103f fa14 c93e
00000090: bdc6 30c0 8ebb c9be 05dd 783f 54c5 4dbf
000000a0: 28b7 d6bf 0dcc 343f fb61 863f f784 b43e
000000b0: a541 e4be 0b28 38bf 3ac9 a5bf e9e4 883f
000000c0: 24e3 14bf 4a6a ecbf 23eb c8bf 4bdf 57bf
000000d0: 5bbe 923d 2dc4 f73e 605f fbbe 2f38 ac3f
000000e0: 2f22 26bf 1ff3 0d3f 7057 0ac0 f9b0 a1be
000000f0: c886 bbbf ca36 8abf aa01 32bf d8e2 2cbf
00000100: b9f6 983e 8cec 96bf 837b 1fbf ebc4 cd3d
00000110: f805 623e dcf9 23bf f306 a53f 95b8 9f3f
00000120: 6796 a83e df70 c1be 8b1e 34bf 239e 17bf
00000130: b33f a1bc 6d06 0ebf 40e2 11be cdca b1be
00000140: ed73 86be bf7a 5ebf 1923 be3e 3d9c 55bf
00000150: d668 56bf 9774 2dbf 76cf b73e 9a98 ab3e
00000160: 3ff7 87bf 4bba cdbf 1cd7 9cbf 9384 8abe
00000170: 538e 57bf 24be ce3e b4d3 b0bf fa8c 8cbe
00000180: 0996 bdbf e46c 273f 5d7c 033f 9e68 4d3f
00000190: e367 f9be caaf e83e 508b adbf 06e6 5a3b
000001a0: b9ab c1bf 349b 0fc0 f6f8 bbbe fee0 0fc0
000001b0: 5ecf f4bf 4caa 533f 2496 d0be a5ae b6bd
000001c0: 02b0 37bf af0f 7bbf bdb6 61c0 8676 e2be
000001d0: fd14 f73e e27f a1bf d661 dcbd ad9e 033f
000001e0: 18d1 183f 284c b63c 700c 8c3e f951 5e3f
000001f0: 0220 12c0 1e20 d63e 4849 f4bd 995b da3e

batchnorm3.running_var f4 [128]
1.0295229 1.0653472 1.5303097 1.4401006 0.8944233 1.3958702 0.9713474 1.7253448
1.6513046 1.1644987 1.5383463 1.3135934 1.5197773 1.3060015 1.213154 1.2038635
1.0916139 1.6507427 0.97581935 1.2630707 1.3835276 1.5859798 0.9421577 1.3700606
0.9802988 1.7339373 2.136199 1.0724659 1.0162525 1.3511477 0.7749018 1.3990825
1.4427161 1.0273457 1.284143 0.91864085 2.0813644 1.2254456 0.8880607 1.4298788
0.89238423 1.1633958 2.6191726 1.7195289 0.924815 1.2563435 1.2035606 1.5062963
2.0944529 1.1909525 1.9426948 1.273514 1.4461684 1.2693611 1.0050755 1.1280353
1.3397998 2.8166072 1.7046666 1.3152716 0.90510195 1.2410258 1.1467971 2.5410244
1.5935128 1.8256879 1.2834315 1.6237397 1.4914862 1.6824174 1.0031762 1.1486267
1.1619254 1.188889 1.5420115 0.9690838 1.2219592 1.4290298 1.7749552 0.98978984
1.4753509 0.9671434 1.4846313 1.4187571 1.1967764 1.0422964 1.6065606 1.3243381
1.1932704 1.1678443 1.8955703 1.2866375 0.8961531 1.1499274 1.6339594 1.1870599
1.5820287 1.7424285 1.3881938 0.93480843 1.1844858 0.6969767 1.3242768 1.4135948
0.6661143 1.4994112 0.7319857 1.4339802 1.3089435 1.6520633 1.3766285 1.3781694
1.1869158 1.2745639 1.6520911 1.4859979 0.94820917 1.6237302 1.2737546 1.411104
1.803568 0.8650554 1.2019887 1.5446928 1.3139474 1.0305876 0.88494736 1.4582131
00000000: 68c7 833f 4c5d 883f 30e1 c33f 3755 b83f
00000010: edf8 643f e0ab b23f 39aa 783f 19d8 dc3f
00000020: f35d d33f 4b0e 953f 88e8 c43f d423 a83f
00000030: 1088 c23f 0f2b a73f a148 9b3f 3318 9a3f
00000040: 01ba 8b3f 894b d33f 4ccf 793f 4dac a13f
00000050: 6f17 b13f 6301 cb3f 3f31 713f 255e af3f
00000060: ddf4 7a3f a8f1 dd3f 7cb7 0840 9046 893f
00000070: 9014 823f 68f2 ac3f f75f 463f 2315 b33f
00000080: ecaa b83f 1080 833f cc5e a43f 0c2c 6b3f
00000090: 1335 0540 67db 9c3f f257 633f 4506 b73f
000000a0: 4b73 643f 27ea 943f 86a0 2740 8619 dc3f
000000b0: adc0 6c3f ddcf a03f 460e 9a3f 51ce c03f
000000c0: 840b 0640 2271 983f 39aa f83f 8202 a33f
000000d0: 0c1c b93f 6d7a a23f 50a6 803f 7663 903f
000000e0: 8f7e ab3f 4b43 3440 8432 da3f d25a a83f
000000f0: c3b4 673f efd9 9e3f 3fca 923f 25a0 2240
00000100: 3af8 cb3f 24b0 e93f 7c47 a43f b4d6 cf3f
00000110: 05e9 be3f 7459 d73f 1468 803f 3306 933f
00000120: f9b9 943f 842d 983f a260 c53f e015 783f
00000130: 2969 9c3f 73ea b63f bb31 e33f de62 7d3f
00000140: 4cd8 bc3f b696 773f 6608 be3f d599 b53f
00000150: f82f 993f f869 853f c7a3 cd3f e983 a93f
00000160: 16bd 983f ec7b 953f 0ca2 f23f 8ab0 a43f
00000170: 4a6a 653f d230 933f 9525 d13f 94f1 973f
00000180: eb7f ca3f e607 df3f 56b0 b13f 9b4f 6f3f
00000190: 3b9d 973f 116d 323f e781 a93f adf0 b43f
000001a0: 7786 2a3f b5ec bf3f 6a63 3b3f aa8c b73f
000001b0: 768b a73f cf76 d33f 5d35 b03f db67 b03f
000001c0: dbec 973f e924 a33f b977 d33f 2e35 be3f
000001d0: d6bd 723f 64d6 cf3f 640a a33f 0e9f b43f
000001e0: 51db e63f 4574 5d3f c4da 993f 7eb8 c53f
000001f0: 6e2f a83f 4bea 833f e98b 623f baa6 ba3f
